…
+     layer_dense(units = 128, activation = "relu") %>%
+     layer_dropout(rate = 0.25) %>%
+     layer_dense(units = 64, activation = "relu") %>%
+     layer_dropout(rate = 0.25) %>%
+     layer_dense(units = 100, activation = "relu")
> 
> 
> summary(model)
Model: "sequential_1"
_________________________________________________________________________________________
 Layer (type)                           Output Shape                       Param #       
=========================================================================================
 dense_5 (Dense)                        (None, 256)                        786688        
 dropout_2 (Dropout)                    (None, 256)                        0             
 dense_4 (Dense)                        (None, 128)                        32896         
 dropout_1 (Dropout)                    (None, 128)                        0             
 dense_3 (Dense)                        (None, 64)                         8256          
 dropout (Dropout)                      (None, 64)                         0             
 dense_2 (Dense)                        (None, 100)                        6500          
=========================================================================================
Total params: 834,340
Trainable params: 834,340
Non-trainable params: 0
_________________________________________________________________________________________
> 
> model %>% compile(
+     loss = "categorical_crossentropy",     #calculate loss
+     optimizer = optimizer_adam(),          #optimization
…
